…
2021-09-29 01:42:28,805 [INFO] octopus is downloading data...
2021-09-29 01:42:28,806 [INFO] Downloading files for kaggle competition:idl-fall2021-hw1p2...
2021-09-29 01:43:00,597 [INFO] Downloading idl-fall2021-hw1p2.zip to /home/ubuntu/content/competitions/idl-fall2021-hw1p2


2021-09-29 01:43:00,598 [INFO] Unzipping competition files...
2021-09-29 01:44:12,709 [INFO] octopus has finished downloading data.
2021-09-29 01:44:12,710 [INFO] octopus is running the pipeline...
2021-09-29 01:44:12,710 [INFO] Initializing model...
2021-09-29 01:44:12,816 [INFO] Model initialized:
MLP(
  (model): Sequential(
    (lin1): Linear(in_features=1640, out_features=2048, bias=True)
    (bn1): BatchNorm1d(2048, eps=1e-05, momentum=0.1, affine=True, track_running_stats=True)
    (drop1): Dropout(p=0.3, inplace=False)
    (ReLU1): ReLU(inplace=True)
    (lin2): Linear(in_features=2048, out_features=2048, bias=True)
    (bn2): BatchNorm1d(2048, eps=1e-05, momentum=0.1, affine=True, track_running_stats=True)
    (drop2): Dropout(p=0.3, inplace=False)
    (ReLU2): ReLU(inplace=True)
    (lin3): Linear(in_features=2048, out_features=2048, bias=True)
    (bn3): BatchNorm1d(2048, eps=1e-05, momentum=0.1, affine=True, track_running_stats=True)
    (drop3): Dropout(p=0.3, inplace=False)
    (ReLU3): ReLU(inplace=True)
    (lin4): Linear(in_features=2048, out_features=1024, bias=True)
    (bn4): BatchNorm1d(1024, eps=1e-05, momentum=0.1, affine=True, track_running_stats=True)
    (drop4): Dropout(p=0.3, inplace=False)
    (ReLU4): ReLU(inplace=True)
    (lin5): Linear(in_features=1024, out_features=512, bias=True)
    (bn5): BatchNorm1d(512, eps=1e-05, momentum=0.1, affine=True, track_running_stats=True)
    (drop5): Dropout(p=0.3, inplace=False)
    (ReLU5): ReLU(inplace=True)
    (lin6): Linear(in_features=512, out_features=71, bias=True)
  )
)
2021-09-29 01:44:16,217 [INFO] Criterion is set:CrossEntropyLoss().
2021-09-29 01:44:16,217 [INFO] Optimizer initialized:
Adam (
Parameter Group 0
    amsgrad: False
    betas: (0.9, 0.999)
    eps: 1e-08
    lr: 0.001
    weight_decay: 0
)
2021-09-29 01:44:16,217 [INFO] Scheduler initialized:
<class 'torch.optim.lr_scheduler.ReduceLROnPlateau'>
2021-09-29 01:44:16,217 [INFO] Loading data...
…
